…
65, 17, 833, 1166, 2167, 2168, 2169, 834, 67, 8, 215, 282, 2170, 3, 25, 672, 2171, 7, 12, 47, 37, 158, 57, 5, 338, 3, 25, 454, 2172, 51, 4, 251, 251, 72, 339, 1167, 12, 340, 1168, 341, 14], original labels: yes no yes no yes no no, label ids: [[0], [1], [0], [1], [0], [1], [1]]
04/04/2021 01:23:23 - INFO - data_utils.preprocess -   there are nearly 10 batches in an epoch
04/04/2021 01:23:23 - INFO - __main__ -   model
-----------------------------------------------------------------------------------------
MultitaskTransformerEncoderClassificationModel(
  (encoder): Encoder(
    (tok_embedding): Embedding(6283, 256)
    (pos_embedding): Embedding(1000, 256)
    (layers): ModuleList(
      (0): EncoderLayer(
        (layer_norm): LayerNorm(torch.Size([256]), eps=1e-05, elementwise_affine=True)
        (self_attention): SelfAttentionLayer(
          (fc_q): Linear(in_features=256, out_features=256, bias=True)
          (fc_k): Linear(in_features=256, out_features=256, bias=True)
          (fc_v): Linear(in_features=256, out_features=256, bias=True)
          (fc): Linear(in_features=256, out_features=256, bias=True)
          (dropout): Dropout(p=0.1)
        )
        (positionwise_feedforward): PositionwiseFeedforwardLayer(
          (fc_1): Linear(in_features=256, out_features=256, bias=True)
          (fc_2): Linear(in_features=256, out_features=256, bias=True)
          (dropout): Dropout(p=0.1)
        )
        (dropout): Dropout(p=0.1)
      )
      (1): EncoderLayer(
        (layer_norm): LayerNorm(torch.Size([256]), eps=1e-05, elementwise_affine=True)
        (self_attention): SelfAttentionLayer(
          (fc_q): Linear(in_features=256, out_features=256, bias=True)
          (fc_k): Linear(in_features=256, out_features=256, bias=True)
          (fc_v): Linear(in_features=256, out_features=256, bias=True)
          (fc): Linear(in_features=256, out_features=256, bias=True)
          (dropout): Dropout(p=0.1)
        )
        (positionwise_feedforward): PositionwiseFeedforwardLayer(
          (fc_1): Linear(in_features=256, out_features=256, bias=True)
          (fc_2): Linear(in_features=256, out_features=256, bias=True)
          (dropout): Dropout(p=0.1)
        )
        (dropout): Dropout(p=0.1)
      )
      (2): EncoderLayer(
        (layer_norm): LayerNorm(torch.Size([256]), eps=1e-05, elementwise_affine=True)
        (self_attention): SelfAttentionLayer(
          (fc_q): Linear(in_features=256, out_features=256, bias=True)
          (fc_k): Linear(in_features=256, out_features=256, bias=True)
          (fc_v): Linear(in_features=256, out_features=256, bias=True)
          (fc): Linear(in_features=256, out_features=256, bias=True)
          (dropout): Dropout(p=0.1)
        )
        (positionwise_feedforward): PositionwiseFeedforwardLayer(
          (fc_1): Linear(in_features=256, out_features=256, bias=True)
          (fc_2): Linear(in_features=256, out_features=256, bias=True)
          (dropout): Dropout(p=0.1)
        )
        (dropout): Dropout(p=0.1)
      )
    )
    (dropout): Dropout(p=0.1)
  )
  (fc): Linear(in_features=256, out_features=64, bias=True)
  (clfs): ModuleList(
    (0): Linear(in_features=64, out_features=3, bias=True)
    (1): Linear(in_features=64, out_features=3, bias=True)
    (2): Linear(in_features=64, out_features=3, bias=True)
    (3): Linear(in_features=64, out_features=3, bias=True)
    (4): Linear(in_features=64, out_features=3, bias=True)
    (5): Linear(in_features=64, out_features=3, bias=True)
    (6): Linear(in_features=64, out_features=3, bias=True)
  )
)
-----------------------------------------------------------------------------------------

04/04/2021 01:23:23 - INFO - __main__ -   the model has 3,068,053 trainable parameters
04/04/2021 01:23:23 - INFO - __main__ -   applying xavier initialization of model parameters
04/04/2021 01:23:23 - INFO - __main__ -   🌋  starting training..
04/04/2021 01:23:23 - INFO - training_utils.train_loop -   postprocessing targets..
…
