…
03/17/2021 23:19:04 - INFO - data_utils.preprocess -   sample idx: 4, original text: My mans House would pop 6 Vicodin on Thursday and have that cure by Saturday morning., preprocessed text: ['<sos>', 'My', 'mans', 'House', 'would', 'pop', '6', 'Vicodin', 'on', 'Thursday', 'and', 'have', 'that', 'cure', 'by', 'Saturday', 'morning', '.'], text ids: [2, 600, 6049, 1908, 523, 3553, 288, 6050, 82, 1904, 35, 116, 71, 2510, 191, 6051, 1906, 6], original labels: no nan nan nan nan no no, label ids: [[1], [2], [2], [2], [2], [1], [1]]
03/17/2021 23:19:06 - INFO - data_utils.preprocess -   there are nearly 29 batches in an epoch
03/17/2021 23:19:06 - INFO - __main__ -   model
-----------------------------------------------------------------------------------------
MultitaskTransformerEncoderClassificationModel(
  (encoder): Encoder(
    (tok_embedding): Embedding(17198, 512)
    (pos_embedding): Embedding(1000, 512)
    (layers): ModuleList(
      (0): EncoderLayer(
        (layer_norm): LayerNorm(torch.Size([512]), eps=1e-05, elementwise_affine=True)
        (self_attention): SelfAttentionLayer(
          (fc_q): Linear(in_features=512, out_features=512, bias=True)
          (fc_k): Linear(in_features=512, out_features=512, bias=True)
          (fc_v): Linear(in_features=512, out_features=512, bias=True)
          (fc): Linear(in_features=512, out_features=512, bias=True)
          (dropout): Dropout(p=0.1)
        )
        (positionwise_feedforward): PositionwiseFeedforwardLayer(
          (fc_1): Linear(in_features=512, out_features=256, bias=True)
          (fc_2): Linear(in_features=256, out_features=512, bias=True)
          (dropout): Dropout(p=0.1)
        )
        (dropout): Dropout(p=0.1)
      )
      (1): EncoderLayer(
        (layer_norm): LayerNorm(torch.Size([512]), eps=1e-05, elementwise_affine=True)
        (self_attention): SelfAttentionLayer(
          (fc_q): Linear(in_features=512, out_features=512, bias=True)
          (fc_k): Linear(in_features=512, out_features=512, bias=True)
          (fc_v): Linear(in_features=512, out_features=512, bias=True)
          (fc): Linear(in_features=512, out_features=512, bias=True)
          (dropout): Dropout(p=0.1)
        )
        (positionwise_feedforward): PositionwiseFeedforwardLayer(
          (fc_1): Linear(in_features=512, out_features=256, bias=True)
          (fc_2): Linear(in_features=256, out_features=512, bias=True)
          (dropout): Dropout(p=0.1)
        )
        (dropout): Dropout(p=0.1)
      )
      (2): EncoderLayer(
        (layer_norm): LayerNorm(torch.Size([512]), eps=1e-05, elementwise_affine=True)
        (self_attention): SelfAttentionLayer(
          (fc_q): Linear(in_features=512, out_features=512, bias=True)
          (fc_k): Linear(in_features=512, out_features=512, bias=True)
          (fc_v): Linear(in_features=512, out_features=512, bias=True)
          (fc): Linear(in_features=512, out_features=512, bias=True)
          (dropout): Dropout(p=0.1)
        )
        (positionwise_feedforward): PositionwiseFeedforwardLayer(
          (fc_1): Linear(in_features=512, out_features=256, bias=True)
          (fc_2): Linear(in_features=256, out_features=512, bias=True)
          (dropout): Dropout(p=0.1)
        )
        (dropout): Dropout(p=0.1)
      )
    )
    (dropout): Dropout(p=0.1)
  )
  (fc): Linear(in_features=512, out_features=64, bias=True)
  (clfs): ModuleList(
    (0): Linear(in_features=64, out_features=3, bias=True)
    (1): Linear(in_features=64, out_features=3, bias=True)
    (2): Linear(in_features=64, out_features=3, bias=True)
    (3): Linear(in_features=64, out_features=3, bias=True)
    (4): Linear(in_features=64, out_features=3, bias=True)
    (5): Linear(in_features=64, out_features=3, bias=True)
    (6): Linear(in_features=64, out_features=3, bias=True)
  )
)
-----------------------------------------------------------------------------------------

03/17/2021 23:19:06 - INFO - __main__ -   the model has 13,295,253 trainable parameters
03/17/2021 23:19:06 - INFO - __main__ -   applying xavier initialization of model parameters
03/17/2021 23:19:06 - INFO - __main__ -   🌋  starting training..
03/17/2021 23:19:08 - INFO - training_utils.train_loop -   postprocessing targets..
…
