…
03/17/2021 23:13:13 - INFO - data_utils.preprocess -   sample idx: 4, original text: My mans House would pop 6 Vicodin on Thursday and have that cure by Saturday morning., preprocessed text: ['<sos>', 'My', 'mans', 'House', 'would', 'pop', '6', 'Vicodin', 'on', 'Thursday', 'and', 'have', 'that', 'cure', 'by', 'Saturday', 'morning', '.'], text ids: [2, 146, 1276, 455, 125, 784, 367, 1277, 21, 451, 9, 30, 14, 575, 52, 1278, 453, 3], original labels: no nan nan nan nan no no, label ids: [[1], [2], [2], [2], [2], [1], [1]]
03/17/2021 23:13:15 - INFO - data_utils.preprocess -   there are nearly 6 batches in an epoch
03/17/2021 23:13:15 - INFO - __main__ -   model
-----------------------------------------------------------------------------------------
MultitaskTransformerEncoderClassificationModel(
  (encoder): Encoder(
    (tok_embedding): Embedding(3561, 256)
    (pos_embedding): Embedding(1000, 256)
    (layers): ModuleList(
      (0): EncoderLayer(
        (layer_norm): LayerNorm(torch.Size([256]), eps=1e-05, elementwise_affine=True)
        (self_attention): SelfAttentionLayer(
          (fc_q): Linear(in_features=256, out_features=256, bias=True)
          (fc_k): Linear(in_features=256, out_features=256, bias=True)
          (fc_v): Linear(in_features=256, out_features=256, bias=True)
          (fc): Linear(in_features=256, out_features=256, bias=True)
          (dropout): Dropout(p=0.1)
        )
        (positionwise_feedforward): PositionwiseFeedforwardLayer(
          (fc_1): Linear(in_features=256, out_features=256, bias=True)
          (fc_2): Linear(in_features=256, out_features=256, bias=True)
          (dropout): Dropout(p=0.1)
        )
        (dropout): Dropout(p=0.1)
      )
      (1): EncoderLayer(
        (layer_norm): LayerNorm(torch.Size([256]), eps=1e-05, elementwise_affine=True)
        (self_attention): SelfAttentionLayer(
          (fc_q): Linear(in_features=256, out_features=256, bias=True)
          (fc_k): Linear(in_features=256, out_features=256, bias=True)
          (fc_v): Linear(in_features=256, out_features=256, bias=True)
          (fc): Linear(in_features=256, out_features=256, bias=True)
          (dropout): Dropout(p=0.1)
        )
        (positionwise_feedforward): PositionwiseFeedforwardLayer(
          (fc_1): Linear(in_features=256, out_features=256, bias=True)
          (fc_2): Linear(in_features=256, out_features=256, bias=True)
          (dropout): Dropout(p=0.1)
        )
        (dropout): Dropout(p=0.1)
      )
      (2): EncoderLayer(
        (layer_norm): LayerNorm(torch.Size([256]), eps=1e-05, elementwise_affine=True)
        (self_attention): SelfAttentionLayer(
          (fc_q): Linear(in_features=256, out_features=256, bias=True)
          (fc_k): Linear(in_features=256, out_features=256, bias=True)
          (fc_v): Linear(in_features=256, out_features=256, bias=True)
          (fc): Linear(in_features=256, out_features=256, bias=True)
          (dropout): Dropout(p=0.1)
        )
        (positionwise_feedforward): PositionwiseFeedforwardLayer(
          (fc_1): Linear(in_features=256, out_features=256, bias=True)
          (fc_2): Linear(in_features=256, out_features=256, bias=True)
          (dropout): Dropout(p=0.1)
        )
        (dropout): Dropout(p=0.1)
      )
    )
    (dropout): Dropout(p=0.1)
  )
  (fc): Linear(in_features=256, out_features=64, bias=True)
  (clfs): ModuleList(
    (0): Linear(in_features=64, out_features=3, bias=True)
    (1): Linear(in_features=64, out_features=3, bias=True)
    (2): Linear(in_features=64, out_features=3, bias=True)
    (3): Linear(in_features=64, out_features=3, bias=True)
    (4): Linear(in_features=64, out_features=3, bias=True)
    (5): Linear(in_features=64, out_features=3, bias=True)
    (6): Linear(in_features=64, out_features=3, bias=True)
  )
)
-----------------------------------------------------------------------------------------

03/17/2021 23:13:15 - INFO - __main__ -   the model has 2,371,221 trainable parameters
03/17/2021 23:13:15 - INFO - __main__ -   applying xavier initialization of model parameters
03/17/2021 23:13:15 - INFO - __main__ -   🌋  starting training..
03/17/2021 23:13:15 - INFO - training_utils.train_loop -   postprocessing targets..
…
