…
банизацията', 'при', 'предишни', 'чуми', '.', 'HTTPURL'], text ids: [2, 5585, 3261, 173, 106, 11, 5586, 2276, 11, 5587, 5588, 52, 1390, 74, 5589, 13, 2277, 11, 5590, 71, 5591, 5592, 7, 3], original labels: no nan nan nan nan no no, label ids: [[1], [2], [2], [2], [2], [1], [1]]
04/04/2021 02:05:36 - INFO - data_utils.preprocess -   there are nearly 26 batches in an epoch
04/04/2021 02:05:36 - INFO - __main__ -   model
-----------------------------------------------------------------------------------------
MultitaskTransformerEncoderClassificationModel(
  (encoder): Encoder(
    (tok_embedding): Embedding(16134, 512)
    (pos_embedding): Embedding(1000, 512)
    (layers): ModuleList(
      (0): EncoderLayer(
        (layer_norm): LayerNorm(torch.Size([512]), eps=1e-05, elementwise_affine=True)
        (self_attention): SelfAttentionLayer(
          (fc_q): Linear(in_features=512, out_features=512, bias=True)
          (fc_k): Linear(in_features=512, out_features=512, bias=True)
          (fc_v): Linear(in_features=512, out_features=512, bias=True)
          (fc): Linear(in_features=512, out_features=512, bias=True)
          (dropout): Dropout(p=0.1)
        )
        (positionwise_feedforward): PositionwiseFeedforwardLayer(
          (fc_1): Linear(in_features=512, out_features=256, bias=True)
          (fc_2): Linear(in_features=256, out_features=512, bias=True)
          (dropout): Dropout(p=0.1)
        )
        (dropout): Dropout(p=0.1)
      )
      (1): EncoderLayer(
        (layer_norm): LayerNorm(torch.Size([512]), eps=1e-05, elementwise_affine=True)
        (self_attention): SelfAttentionLayer(
          (fc_q): Linear(in_features=512, out_features=512, bias=True)
          (fc_k): Linear(in_features=512, out_features=512, bias=True)
          (fc_v): Linear(in_features=512, out_features=512, bias=True)
          (fc): Linear(in_features=512, out_features=512, bias=True)
          (dropout): Dropout(p=0.1)
        )
        (positionwise_feedforward): PositionwiseFeedforwardLayer(
          (fc_1): Linear(in_features=512, out_features=256, bias=True)
          (fc_2): Linear(in_features=256, out_features=512, bias=True)
          (dropout): Dropout(p=0.1)
        )
        (dropout): Dropout(p=0.1)
      )
      (2): EncoderLayer(
        (layer_norm): LayerNorm(torch.Size([512]), eps=1e-05, elementwise_affine=True)
        (self_attention): SelfAttentionLayer(
          (fc_q): Linear(in_features=512, out_features=512, bias=True)
          (fc_k): Linear(in_features=512, out_features=512, bias=True)
          (fc_v): Linear(in_features=512, out_features=512, bias=True)
          (fc): Linear(in_features=512, out_features=512, bias=True)
          (dropout): Dropout(p=0.1)
        )
        (positionwise_feedforward): PositionwiseFeedforwardLayer(
          (fc_1): Linear(in_features=512, out_features=256, bias=True)
          (fc_2): Linear(in_features=256, out_features=512, bias=True)
          (dropout): Dropout(p=0.1)
        )
        (dropout): Dropout(p=0.1)
      )
    )
    (dropout): Dropout(p=0.1)
  )
  (fc): Linear(in_features=512, out_features=64, bias=True)
  (clfs): ModuleList(
    (0): Linear(in_features=64, out_features=3, bias=True)
    (1): Linear(in_features=64, out_features=3, bias=True)
    (2): Linear(in_features=64, out_features=3, bias=True)
    (3): Linear(in_features=64, out_features=3, bias=True)
    (4): Linear(in_features=64, out_features=3, bias=True)
    (5): Linear(in_features=64, out_features=3, bias=True)
    (6): Linear(in_features=64, out_features=3, bias=True)
  )
)
-----------------------------------------------------------------------------------------

04/04/2021 02:05:36 - INFO - __main__ -   the model has 12,750,485 trainable parameters
04/04/2021 02:05:36 - INFO - __main__ -   applying xavier initialization of model parameters
04/04/2021 02:05:36 - INFO - __main__ -   🌋  starting training..
04/04/2021 02:05:37 - INFO - training_utils.train_loop -   postprocessing targets..
…
