…
банизацията', 'при', 'предишни', 'чуми', '.', 'HTTPURL'], text ids: [2, 5593, 3271, 178, 106, 11, 5594, 2287, 11, 5595, 5596, 53, 1398, 74, 5597, 13, 2288, 11, 5598, 70, 5599, 5600, 7, 3], original labels: no nan nan nan nan no no, label ids: [[1], [2], [2], [2], [2], [1], [1]]
03/21/2021 22:07:21 - INFO - data_utils.preprocess -   there are nearly 26 batches in an epoch
03/21/2021 22:07:21 - INFO - __main__ -   model
-----------------------------------------------------------------------------------------
MultitaskTransformerEncoderClassificationModel(
  (encoder): Encoder(
    (tok_embedding): Embedding(16083, 128)
    (pos_embedding): Embedding(1000, 128)
    (layers): ModuleList(
      (0): EncoderLayer(
        (layer_norm): LayerNorm(torch.Size([128]), eps=1e-05, elementwise_affine=True)
        (self_attention): SelfAttentionLayer(
          (fc_q): Linear(in_features=128, out_features=128, bias=True)
          (fc_k): Linear(in_features=128, out_features=128, bias=True)
          (fc_v): Linear(in_features=128, out_features=128, bias=True)
          (fc): Linear(in_features=128, out_features=128, bias=True)
          (dropout): Dropout(p=0.1)
        )
        (positionwise_feedforward): PositionwiseFeedforwardLayer(
          (fc_1): Linear(in_features=128, out_features=256, bias=True)
          (fc_2): Linear(in_features=256, out_features=128, bias=True)
          (dropout): Dropout(p=0.1)
        )
        (dropout): Dropout(p=0.1)
      )
      (1): EncoderLayer(
        (layer_norm): LayerNorm(torch.Size([128]), eps=1e-05, elementwise_affine=True)
        (self_attention): SelfAttentionLayer(
          (fc_q): Linear(in_features=128, out_features=128, bias=True)
          (fc_k): Linear(in_features=128, out_features=128, bias=True)
          (fc_v): Linear(in_features=128, out_features=128, bias=True)
          (fc): Linear(in_features=128, out_features=128, bias=True)
          (dropout): Dropout(p=0.1)
        )
        (positionwise_feedforward): PositionwiseFeedforwardLayer(
          (fc_1): Linear(in_features=128, out_features=256, bias=True)
          (fc_2): Linear(in_features=256, out_features=128, bias=True)
          (dropout): Dropout(p=0.1)
        )
        (dropout): Dropout(p=0.1)
      )
      (2): EncoderLayer(
        (layer_norm): LayerNorm(torch.Size([128]), eps=1e-05, elementwise_affine=True)
        (self_attention): SelfAttentionLayer(
          (fc_q): Linear(in_features=128, out_features=128, bias=True)
          (fc_k): Linear(in_features=128, out_features=128, bias=True)
          (fc_v): Linear(in_features=128, out_features=128, bias=True)
          (fc): Linear(in_features=128, out_features=128, bias=True)
          (dropout): Dropout(p=0.1)
        )
        (positionwise_feedforward): PositionwiseFeedforwardLayer(
          (fc_1): Linear(in_features=128, out_features=256, bias=True)
          (fc_2): Linear(in_features=256, out_features=128, bias=True)
          (dropout): Dropout(p=0.1)
        )
        (dropout): Dropout(p=0.1)
      )
    )
    (dropout): Dropout(p=0.1)
  )
  (fc): Linear(in_features=128, out_features=64, bias=True)
  (clfs): ModuleList(
    (0): Linear(in_features=64, out_features=3, bias=True)
    (1): Linear(in_features=64, out_features=3, bias=True)
    (2): Linear(in_features=64, out_features=3, bias=True)
    (3): Linear(in_features=64, out_features=3, bias=True)
    (4): Linear(in_features=64, out_features=3, bias=True)
    (5): Linear(in_features=64, out_features=3, bias=True)
    (6): Linear(in_features=64, out_features=3, bias=True)
  )
)
-----------------------------------------------------------------------------------------

03/21/2021 22:07:21 - INFO - __main__ -   the model has 2,592,917 trainable parameters
03/21/2021 22:07:21 - INFO - __main__ -   applying xavier initialization of model parameters
03/21/2021 22:07:21 - INFO - __main__ -   🌋  starting training..
03/21/2021 22:07:22 - INFO - training_utils.train_loop -   postprocessing targets..
…
