…
0, 12, 838, 1173, 2081, 2082, 2083, 839, 191, 19, 229, 275, 2084, 3, 22, 655, 2085, 13, 10, 42, 30, 152, 53, 4, 337, 3, 22, 453, 2086, 49, 5, 250, 250, 68, 338, 1174, 10, 339, 1175, 658, 7], original labels: yes no yes no yes no no, label ids: [[0], [1], [0], [1], [0], [1], [1]]
04/04/2021 01:35:33 - INFO - data_utils.preprocess -   there are nearly 8 batches in an epoch
04/04/2021 01:35:33 - INFO - __main__ -   model
-----------------------------------------------------------------------------------------
MultitaskTransformerEncoderClassificationModel(
  (encoder): Encoder(
    (tok_embedding): Embedding(6611, 256)
    (pos_embedding): Embedding(1000, 256)
    (layers): ModuleList(
      (0): EncoderLayer(
        (layer_norm): LayerNorm(torch.Size([256]), eps=1e-05, elementwise_affine=True)
        (self_attention): SelfAttentionLayer(
          (fc_q): Linear(in_features=256, out_features=256, bias=True)
          (fc_k): Linear(in_features=256, out_features=256, bias=True)
          (fc_v): Linear(in_features=256, out_features=256, bias=True)
          (fc): Linear(in_features=256, out_features=256, bias=True)
          (dropout): Dropout(p=0.1)
        )
        (positionwise_feedforward): PositionwiseFeedforwardLayer(
          (fc_1): Linear(in_features=256, out_features=256, bias=True)
          (fc_2): Linear(in_features=256, out_features=256, bias=True)
          (dropout): Dropout(p=0.1)
        )
        (dropout): Dropout(p=0.1)
      )
      (1): EncoderLayer(
        (layer_norm): LayerNorm(torch.Size([256]), eps=1e-05, elementwise_affine=True)
        (self_attention): SelfAttentionLayer(
          (fc_q): Linear(in_features=256, out_features=256, bias=True)
          (fc_k): Linear(in_features=256, out_features=256, bias=True)
          (fc_v): Linear(in_features=256, out_features=256, bias=True)
          (fc): Linear(in_features=256, out_features=256, bias=True)
          (dropout): Dropout(p=0.1)
        )
        (positionwise_feedforward): PositionwiseFeedforwardLayer(
          (fc_1): Linear(in_features=256, out_features=256, bias=True)
          (fc_2): Linear(in_features=256, out_features=256, bias=True)
          (dropout): Dropout(p=0.1)
        )
        (dropout): Dropout(p=0.1)
      )
      (2): EncoderLayer(
        (layer_norm): LayerNorm(torch.Size([256]), eps=1e-05, elementwise_affine=True)
        (self_attention): SelfAttentionLayer(
          (fc_q): Linear(in_features=256, out_features=256, bias=True)
          (fc_k): Linear(in_features=256, out_features=256, bias=True)
          (fc_v): Linear(in_features=256, out_features=256, bias=True)
          (fc): Linear(in_features=256, out_features=256, bias=True)
          (dropout): Dropout(p=0.1)
        )
        (positionwise_feedforward): PositionwiseFeedforwardLayer(
          (fc_1): Linear(in_features=256, out_features=256, bias=True)
          (fc_2): Linear(in_features=256, out_features=256, bias=True)
          (dropout): Dropout(p=0.1)
        )
        (dropout): Dropout(p=0.1)
      )
    )
    (dropout): Dropout(p=0.1)
  )
  (fc): Linear(in_features=256, out_features=64, bias=True)
  (clfs): ModuleList(
    (0): Linear(in_features=64, out_features=3, bias=True)
    (1): Linear(in_features=64, out_features=3, bias=True)
    (2): Linear(in_features=64, out_features=3, bias=True)
    (3): Linear(in_features=64, out_features=3, bias=True)
    (4): Linear(in_features=64, out_features=3, bias=True)
    (5): Linear(in_features=64, out_features=3, bias=True)
    (6): Linear(in_features=64, out_features=3, bias=True)
  )
)
-----------------------------------------------------------------------------------------

04/04/2021 01:35:33 - INFO - __main__ -   the model has 3,152,021 trainable parameters
04/04/2021 01:35:33 - INFO - __main__ -   applying xavier initialization of model parameters
04/04/2021 01:35:33 - INFO - __main__ -   🌋  starting training..
04/04/2021 01:35:34 - INFO - training_utils.train_loop -   postprocessing targets..
…
