…
03/17/2021 23:36:35 - INFO - data_utils.preprocess -   sample idx: 4, original text: My mans House would pop 6 Vicodin on Thursday and have that cure by Saturday morning., preprocessed text: ['<sos>', 'My', 'mans', 'House', 'would', 'pop', '6', 'Vicodin', 'on', 'Thursday', 'and', 'have', 'that', 'cure', 'by', 'Saturday', 'morning', '.'], text ids: [2, 179, 1853, 579, 150, 1062, 215, 1854, 24, 575, 10, 36, 17, 749, 64, 1855, 577, 3], original labels: no nan nan nan nan no no, label ids: [[1], [2], [2], [2], [2], [1], [1]]
03/17/2021 23:36:37 - INFO - data_utils.preprocess -   there are nearly 7 batches in an epoch
03/17/2021 23:36:37 - INFO - __main__ -   model
-----------------------------------------------------------------------------------------
MultitaskTransformerEncoderClassificationModel(
  (encoder): Encoder(
    (tok_embedding): Embedding(6022, 128)
    (pos_embedding): Embedding(1000, 128)
    (layers): ModuleList(
      (0): EncoderLayer(
        (layer_norm): LayerNorm(torch.Size([128]), eps=1e-05, elementwise_affine=True)
        (self_attention): SelfAttentionLayer(
          (fc_q): Linear(in_features=128, out_features=128, bias=True)
          (fc_k): Linear(in_features=128, out_features=128, bias=True)
          (fc_v): Linear(in_features=128, out_features=128, bias=True)
          (fc): Linear(in_features=128, out_features=128, bias=True)
          (dropout): Dropout(p=0.1)
        )
        (positionwise_feedforward): PositionwiseFeedforwardLayer(
          (fc_1): Linear(in_features=128, out_features=256, bias=True)
          (fc_2): Linear(in_features=256, out_features=128, bias=True)
          (dropout): Dropout(p=0.1)
        )
        (dropout): Dropout(p=0.1)
      )
      (1): EncoderLayer(
        (layer_norm): LayerNorm(torch.Size([128]), eps=1e-05, elementwise_affine=True)
        (self_attention): SelfAttentionLayer(
          (fc_q): Linear(in_features=128, out_features=128, bias=True)
          (fc_k): Linear(in_features=128, out_features=128, bias=True)
          (fc_v): Linear(in_features=128, out_features=128, bias=True)
          (fc): Linear(in_features=128, out_features=128, bias=True)
          (dropout): Dropout(p=0.1)
        )
        (positionwise_feedforward): PositionwiseFeedforwardLayer(
          (fc_1): Linear(in_features=128, out_features=256, bias=True)
          (fc_2): Linear(in_features=256, out_features=128, bias=True)
          (dropout): Dropout(p=0.1)
        )
        (dropout): Dropout(p=0.1)
      )
      (2): EncoderLayer(
        (layer_norm): LayerNorm(torch.Size([128]), eps=1e-05, elementwise_affine=True)
        (self_attention): SelfAttentionLayer(
          (fc_q): Linear(in_features=128, out_features=128, bias=True)
          (fc_k): Linear(in_features=128, out_features=128, bias=True)
          (fc_v): Linear(in_features=128, out_features=128, bias=True)
          (fc): Linear(in_features=128, out_features=128, bias=True)
          (dropout): Dropout(p=0.1)
        )
        (positionwise_feedforward): PositionwiseFeedforwardLayer(
          (fc_1): Linear(in_features=128, out_features=256, bias=True)
          (fc_2): Linear(in_features=256, out_features=128, bias=True)
          (dropout): Dropout(p=0.1)
        )
        (dropout): Dropout(p=0.1)
      )
    )
    (dropout): Dropout(p=0.1)
  )
  (fc): Linear(in_features=128, out_features=64, bias=True)
  (clfs): ModuleList(
    (0): Linear(in_features=64, out_features=3, bias=True)
    (1): Linear(in_features=64, out_features=3, bias=True)
    (2): Linear(in_features=64, out_features=3, bias=True)
    (3): Linear(in_features=64, out_features=3, bias=True)
    (4): Linear(in_features=64, out_features=3, bias=True)
    (5): Linear(in_features=64, out_features=3, bias=True)
    (6): Linear(in_features=64, out_features=3, bias=True)
  )
)
-----------------------------------------------------------------------------------------

03/17/2021 23:36:37 - INFO - __main__ -   the model has 1,305,109 trainable parameters
03/17/2021 23:36:37 - INFO - __main__ -   applying xavier initialization of model parameters
03/17/2021 23:36:37 - INFO - __main__ -   🌋  starting training..
03/17/2021 23:36:37 - INFO - training_utils.train_loop -   postprocessing targets..
…
