…
банизацията', 'при', 'предишни', 'чуми', '.', 'HTTPURL'], text ids: [2, 5441, 3094, 160, 102, 11, 5442, 2139, 11, 5443, 5444, 48, 1602, 69, 5445, 13, 2140, 11, 5446, 66, 5447, 5448, 7, 3], original labels: no nan nan nan nan no no, label ids: [[1], [2], [2], [2], [2], [1], [1]]
04/04/2021 02:31:35 - INFO - data_utils.preprocess -   there are nearly 26 batches in an epoch
04/04/2021 02:31:35 - INFO - __main__ -   model
-----------------------------------------------------------------------------------------
MultitaskTransformerEncoderClassificationModel(
  (encoder): Encoder(
    (tok_embedding): Embedding(16422, 512)
    (pos_embedding): Embedding(1000, 512)
    (layers): ModuleList(
      (0): EncoderLayer(
        (layer_norm): LayerNorm(torch.Size([512]), eps=1e-05, elementwise_affine=True)
        (self_attention): SelfAttentionLayer(
          (fc_q): Linear(in_features=512, out_features=512, bias=True)
          (fc_k): Linear(in_features=512, out_features=512, bias=True)
          (fc_v): Linear(in_features=512, out_features=512, bias=True)
          (fc): Linear(in_features=512, out_features=512, bias=True)
          (dropout): Dropout(p=0.1)
        )
        (positionwise_feedforward): PositionwiseFeedforwardLayer(
          (fc_1): Linear(in_features=512, out_features=256, bias=True)
          (fc_2): Linear(in_features=256, out_features=512, bias=True)
          (dropout): Dropout(p=0.1)
        )
        (dropout): Dropout(p=0.1)
      )
      (1): EncoderLayer(
        (layer_norm): LayerNorm(torch.Size([512]), eps=1e-05, elementwise_affine=True)
        (self_attention): SelfAttentionLayer(
          (fc_q): Linear(in_features=512, out_features=512, bias=True)
          (fc_k): Linear(in_features=512, out_features=512, bias=True)
          (fc_v): Linear(in_features=512, out_features=512, bias=True)
          (fc): Linear(in_features=512, out_features=512, bias=True)
          (dropout): Dropout(p=0.1)
        )
        (positionwise_feedforward): PositionwiseFeedforwardLayer(
          (fc_1): Linear(in_features=512, out_features=256, bias=True)
          (fc_2): Linear(in_features=256, out_features=512, bias=True)
          (dropout): Dropout(p=0.1)
        )
        (dropout): Dropout(p=0.1)
      )
      (2): EncoderLayer(
        (layer_norm): LayerNorm(torch.Size([512]), eps=1e-05, elementwise_affine=True)
        (self_attention): SelfAttentionLayer(
          (fc_q): Linear(in_features=512, out_features=512, bias=True)
          (fc_k): Linear(in_features=512, out_features=512, bias=True)
          (fc_v): Linear(in_features=512, out_features=512, bias=True)
          (fc): Linear(in_features=512, out_features=512, bias=True)
          (dropout): Dropout(p=0.1)
        )
        (positionwise_feedforward): PositionwiseFeedforwardLayer(
          (fc_1): Linear(in_features=512, out_features=256, bias=True)
          (fc_2): Linear(in_features=256, out_features=512, bias=True)
          (dropout): Dropout(p=0.1)
        )
        (dropout): Dropout(p=0.1)
      )
    )
    (dropout): Dropout(p=0.1)
  )
  (fc): Linear(in_features=512, out_features=64, bias=True)
  (clfs): ModuleList(
    (0): Linear(in_features=64, out_features=3, bias=True)
    (1): Linear(in_features=64, out_features=3, bias=True)
    (2): Linear(in_features=64, out_features=3, bias=True)
    (3): Linear(in_features=64, out_features=3, bias=True)
    (4): Linear(in_features=64, out_features=3, bias=True)
    (5): Linear(in_features=64, out_features=3, bias=True)
    (6): Linear(in_features=64, out_features=3, bias=True)
  )
)
-----------------------------------------------------------------------------------------

04/04/2021 02:31:35 - INFO - __main__ -   the model has 12,897,941 trainable parameters
04/04/2021 02:31:35 - INFO - __main__ -   applying xavier initialization of model parameters
04/04/2021 02:31:35 - INFO - __main__ -   🌋  starting training..
04/04/2021 02:31:37 - INFO - training_utils.train_loop -   postprocessing targets..
…
