…
банизацията', 'при', 'предишни', 'чуми', '.', 'HTTPURL'], text ids: [2, 5422, 3097, 160, 102, 11, 5423, 2144, 11, 5424, 5425, 48, 1607, 69, 5426, 13, 2145, 11, 5427, 66, 5428, 5429, 7, 3], original labels: no nan nan nan nan no no, label ids: [[1], [2], [2], [2], [2], [1], [1]]
03/21/2021 22:32:48 - INFO - data_utils.preprocess -   there are nearly 26 batches in an epoch
03/21/2021 22:32:48 - INFO - __main__ -   model
-----------------------------------------------------------------------------------------
MultitaskTransformerEncoderClassificationModel(
  (encoder): Encoder(
    (tok_embedding): Embedding(16337, 256)
    (pos_embedding): Embedding(1000, 256)
    (layers): ModuleList(
      (0): EncoderLayer(
        (layer_norm): LayerNorm(torch.Size([256]), eps=1e-05, elementwise_affine=True)
        (self_attention): SelfAttentionLayer(
          (fc_q): Linear(in_features=256, out_features=256, bias=True)
          (fc_k): Linear(in_features=256, out_features=256, bias=True)
          (fc_v): Linear(in_features=256, out_features=256, bias=True)
          (fc): Linear(in_features=256, out_features=256, bias=True)
          (dropout): Dropout(p=0.1)
        )
        (positionwise_feedforward): PositionwiseFeedforwardLayer(
          (fc_1): Linear(in_features=256, out_features=256, bias=True)
          (fc_2): Linear(in_features=256, out_features=256, bias=True)
          (dropout): Dropout(p=0.1)
        )
        (dropout): Dropout(p=0.1)
      )
      (1): EncoderLayer(
        (layer_norm): LayerNorm(torch.Size([256]), eps=1e-05, elementwise_affine=True)
        (self_attention): SelfAttentionLayer(
          (fc_q): Linear(in_features=256, out_features=256, bias=True)
          (fc_k): Linear(in_features=256, out_features=256, bias=True)
          (fc_v): Linear(in_features=256, out_features=256, bias=True)
          (fc): Linear(in_features=256, out_features=256, bias=True)
          (dropout): Dropout(p=0.1)
        )
        (positionwise_feedforward): PositionwiseFeedforwardLayer(
          (fc_1): Linear(in_features=256, out_features=256, bias=True)
          (fc_2): Linear(in_features=256, out_features=256, bias=True)
          (dropout): Dropout(p=0.1)
        )
        (dropout): Dropout(p=0.1)
      )
      (2): EncoderLayer(
        (layer_norm): LayerNorm(torch.Size([256]), eps=1e-05, elementwise_affine=True)
        (self_attention): SelfAttentionLayer(
          (fc_q): Linear(in_features=256, out_features=256, bias=True)
          (fc_k): Linear(in_features=256, out_features=256, bias=True)
          (fc_v): Linear(in_features=256, out_features=256, bias=True)
          (fc): Linear(in_features=256, out_features=256, bias=True)
          (dropout): Dropout(p=0.1)
        )
        (positionwise_feedforward): PositionwiseFeedforwardLayer(
          (fc_1): Linear(in_features=256, out_features=256, bias=True)
          (fc_2): Linear(in_features=256, out_features=256, bias=True)
          (dropout): Dropout(p=0.1)
        )
        (dropout): Dropout(p=0.1)
      )
    )
    (dropout): Dropout(p=0.1)
  )
  (fc): Linear(in_features=256, out_features=64, bias=True)
  (clfs): ModuleList(
    (0): Linear(in_features=64, out_features=3, bias=True)
    (1): Linear(in_features=64, out_features=3, bias=True)
    (2): Linear(in_features=64, out_features=3, bias=True)
    (3): Linear(in_features=64, out_features=3, bias=True)
    (4): Linear(in_features=64, out_features=3, bias=True)
    (5): Linear(in_features=64, out_features=3, bias=True)
    (6): Linear(in_features=64, out_features=3, bias=True)
  )
)
-----------------------------------------------------------------------------------------

03/21/2021 22:32:48 - INFO - __main__ -   the model has 5,641,877 trainable parameters
03/21/2021 22:32:48 - INFO - __main__ -   applying xavier initialization of model parameters
03/21/2021 22:32:48 - INFO - __main__ -   🌋  starting training..
03/21/2021 22:32:49 - INFO - training_utils.train_loop -   postprocessing targets..
…
